ezy_digital_02_2.tflite (tflite, 116208 bytes, 6 tensors)

dense_1/bias f4 [10]
0.040149067 0.22377802 -0.055380713 -0.093151115 -0.040291682 -0.021438913 0.034501515 0.021528067
-0.13603725 0.10604803
00000000: 5973 243d 1126 653e e3d6 62bd 03c6 bebd
00000010: e408 25bd a9a0 afbc 7651 0d3d a15b b03c
00000020: 594d 0bbe b62f d93d

conv2d_3/bias f4 [64]
-0.061891545 -0.00044297674 -0.04627334 0.024468662 0.05053041 -0.04401195 0.032353457 0.098213874
-0.024421556 -0.007675091 0.07749188 -0.005059503 -0.013464888 -0.035806023 -0.04691924 -0.04783047
-0.01202266 0.017535971 0.075593956 -0.06829675 0.019423688 0.02120985 0.020151792 0.003673855
-0.009395688 0.031294677 0.0025232192 0.0653782 -0.05709453 0.0022641027 -0.0013445726 0.044638712
0.05768918 -0.0347596 0.07231107 -0.021389537 0.016439574 -0.037263256 -0.06462045 -0.012112664
0.03431436 -0.050264202 -0.08438966 0.004755323 -0.065715276 0.040095903 -0.03343603 0.036709256
-0.093118474 -0.04499243 0.061413664 -0.007569685 -0.009386685 -0.051147435 -0.004143525 0.049875777
-0.04321833 0.010380592 0.0026477259 -0.03418909 0.027943354 -0.051567316 -0.008592722 0.030561242
00000000: fd81 7dbd 553f e8b9 1d89 3dbd 8172 c83c
00000010: faf8 4e3d e045 34bd 0f85 043d 5b24 c93d
00000020: b70f c8bc 547f fbbb 10b4 9e3d 30ca a5bb
00000030: d59b 5cbc 56a9 12bd 642e 40bd e2e9 43bd
00000040: b1fa 44bc 99a7 8f3c 01d1 9a3d 2bdf 8bbd
00000050: 6d1e 9f3c 48c0 ad3c 5f15 a53c 0fc5 703b
00000060: 5ff0 19bc d92e 003d 985c 253b 01e5 853d
00000070: f4db 69bd 5761 143b 5f3c b0ba 15d7 363d
00000080: 7d4b 6c3d 1560 0ebd d417 943d 1c39 afbc
00000090: 49ac 863c 5ba1 18bd ba57 84bd 3274 46bc
000000a0: 378d 0c3d d6e1 4dbd 7cd4 acbd 8ad2 9b3b
000000b0: bb95 86bd 9a3b 243d 38f4 08bd 725c 163d
000000c0: e6b4 bebd fb49 38bd e58c 7b3d 1f0b f8bb
000000d0: 9cca 19bc f97f 51bd 68c6 87bb 8b4a 4c3d
000000e0: b405 31bd 5c13 2a3c 7885 2d3b dc09 0cbd
000000f0: 76e9 e43c 4038 53bd 7dc8 0cbc 925b fa3c

conv2d_2/bias f4 [32]
0.011507374 -0.002986256 -0.012890064 0.008994121 -0.001182675 0.0851688 -0.0018760005 0.06587028
0.0 0.10305392 0.1083713 -0.013575619 -0.0035161758 -0.0012325607 -0.01053934 -0.00010912999
0.06732762 -0.059645 -0.004873255 -0.01883615 -0.009952418 -0.009301913 0.01581483 0.0015048184
0.09119244 -0.004478224 0.07826871 -0.0076877824 -0.016063202 0.05099053 -0.028743407 -0.0016063693
00000000: 6d89 3c3c 10b5 43bb d930 53bc 145c 133c
00000010: fd03 9bba fb6c ae3d 22e4 f5ba ffe6 863d
00000020: 0000 0000 ef0d d33d c6f1 dd3d 466c 5ebc
00000030: a46f 66bb e08d a1ba 32ad 2cbc b8dc e4b8
00000040: 10e3 893d 514e 74bd d3af 9fbb 454e 9abc
00000050: 770f 23bc 0d67 18bc 1a8e 813c 543d c53a
00000060: 1ac3 ba3d 11be 92bb 584b a03d cbe9 fbbb
00000070: fa96 83bc 72db 503d 4b77 ebbc cf8c d2ba

sequential_1/dense_1/MatMul i1 [10, 9216] scale=0.0067553543 zero_point=0
0.074308895 0.04728748 0.16888386 -0.027021417 0.020266064 0.03377677 -0.027021417 -0.054042835
0.027021417 0.04728748 0.03377677 -0.10808567 -0.41207662 0.10133032 0.0067553543 0.040532127
-0.013510709 -0.020266064 0.074308895 0.17563921 0.04728748 0.0067553543 0.10133032 -0.06079819
-0.49989623 -0.18914992 0.013510709 0.21617134 -0.09457496 -0.09457496 0.06079819 -0.04728748
-0.03377677 -0.36478913 0.040532127 0.0067553543 -0.04728748 -0.21617134 -0.013510709 -0.09457496
-0.06079819 0.12159638 0.14186244 -0.087819606 -0.027021417 -0.04728748 -0.04728748 -0.027021417
-0.18914992 0.040532127 -0.10808567 -0.040532127 -0.12159638 0.020266064 -0.06755354 -0.040532127
0.0 -0.03377677 -0.09457496 -0.22292669 0.10808567 -0.12835173 -0.10133032 -0.13510709
0.06755354 0.040532127 0.14861779 0.040532127 0.03377677 -0.027021417 -0.06079819 -0.054042835
0.027021417 0.04728748 0.054042835 -0.18914992 -0.22968204 0.013510709 -0.12159638 0.0067553543
0.0 -0.054042835 0.0 0.074308895 -0.040532127 0.020266064 -0.04728748 -0.04728748
-0.28372487 -0.31750166 0.10133032 0.12159638 -0.054042835 -0.06755354 -0.020266064 -0.10133032
0.11484102 -0.37829983 0.04728748 0.020266064 -0.020266064 -0.020266064 0.03377677 0.06079819
-0.081064254 0.19590528 0.15537316 -0.09457496 0.10808567 -0.03377677 0.020266064 -0.06079819
-0.06755354 0.081064254 -0.03377677 -0.18239456 -0.12159638 -0.0067553543 -0.013510709 -0.12835173
-0.0067553543 -0.013510709 -0.14861779 -0.0067553543 -0.0067553543 -0.040532127 -0.087819606 0.0067553543
0.081064254 0.081064254 0.040532127 0.06079819 -0.0067553543 0.04728748 -0.11484102 -0.06755354
-0.020266064 0.087819606 -0.26345882 -0.18914992 -0.21617134 -0.081064254 -0.14861779 -0.0067553543
-0.17563921 -0.040532127 0.013510709 -0.013510709 0.0067553543 -0.074308895 -0.16888386 -0.14186244
-0.2364374 -0.30399096 -0.027021417 0.13510709 0.027021417 -0.2364374 -0.013510709 -0.074308895
0.027021417 -0.27696952 0.054042835 0.020266064 0.020266064 -0.17563921 0.074308895 -0.054042835
0.0 0.087819606 0.12159638 -0.040532127 -0.040532127 -0.020266064 0.0067553543 -0.16212851
0.06755354 -0.0067553543 -0.15537316 -0.16888386 -0.21617134 -0.027021417 -0.040532127 -0.06755354
0.0067553543 -0.054042835 -0.35127842 -0.027021417 0.027021417 0.06079819 -0.18914992 -0.14186244
0.074308895 0.10808567 0.020266064 0.03377677 0.0 0.10808567 0.013510709 -0.12835173
-0.027021417 0.03377677 -0.17563921 -0.18239456 -0.24994811 -0.18914992 -0.18239456 0.054042835
-0.11484102 -0.06079819 -0.06079819 0.013510709 0.03377677 0.0 -0.25670347 -0.10133032
-0.17563921 -0.27021417 0.10808567 0.03377677 0.027021417 -0.18239456 0.0067553543 0.027021417
-0.040532127 -0.29048023 0.04728748 0.0 -0.06755354 -0.020266064 -0.04728748 -0.054042835
-0.040532127 0.013510709 0.20941599 -0.10808567 0.0067553543 0.081064254 -0.087819606 -0.17563921
0.03377677 0.06755354 0.0 -0.074308895 -0.14186244 -0.013510709 -0.17563921 0.04728748
-0.04728748 0.09457496 -0.29048023 -0.10133032 0.054042835 -0.03377677 -0.24994811 -0.16212851
00000000: 0b07 19fc 0305 fcf8 0407 05f0 c30f 0106
00000010: fefd 0b1a 0701 0ff7 b6e4 0220 f2f2 09f9
00000020: fbca 0601 f9e0 fef2 f712 15f3 fcf9 f9fc
00000030: e406 f0fa ee03 f6fa 00fb f2df 10ed f1ec
00000040: 0a06 1606 05fc f7f8 0407 08e4 de02 ee01
00000050: 00f8 000b fa03 f9f9 d6d1 0f12 f8f6 fdf1
00000060: 11c8 0703 fdfd 0509 f41d 17f2 10fb 03f7
00000070: f60c fbe5 eeff feed fffe eaff fffa f301
00000080: 0c0c 0609 ff07 eff6 fd0d d9e4 e0f4 eaff
00000090: e6fa 02fe 01f5 e7eb ddd3 fc14 04dd fef5
000000a0: 04d7 0803 03e6 0bf8 000d 12fa fafd 01e8
000000b0: 0aff e9e7 e0fc faf6 01f8 ccfc 0409 e4eb
000000c0: 0b10 0305 0010 02ed fc05 e6e5 dbe4 e508
000000d0: eff7 f702 0500 daf1 e6d8 1005 04e5 0104
000000e0: fad5 0700 f6fd f9f8 fa02 1ff0 010c f3e6
000000f0: 050a 00f5 ebfe e607 f90e d5f1 08fb dbe8

sequential_1/conv2d_2/Conv2D f4 [32, 3, 3, 1]
0.31444672 -0.14118455 -0.40125227 0.33946073 -0.058587532 -0.35891423 0.29813525 0.25574973
0.10966435 0.39979935 -0.012977781 -0.08862951 -0.12514794 -0.3207737 0.105897866 0.06372577
-0.07978025 0.3097854 0.41249418 0.055375237 -0.12127438 0.20208491 -0.06841454 -0.0061230436
0.0532312 -0.038241975 -0.12147664 0.28798026 0.23866591 0.3468846 -0.084636554 0.07072318
0.05665998 -0.3248382 -0.32657623 -0.20801477 0.4460973 0.07417368 0.083178535 -0.11394207
-0.24692222 -0.0082989065 -0.12585215 0.029478058 0.09839571 0.032122258 0.21931139 0.2490145
-0.10840308 0.2861631 0.14307038 -0.8249776 -0.3707436 -0.52110386 0.06245051 0.029883219
-0.2626263 -0.07027995 -0.12969169 -0.043825887 0.14529683 0.15823436 0.49618712 0.3642482
0.34107122 0.2107134 -3.2179025e-05 0.060622383 -0.14795782 -0.5124379 -0.338625 -0.6523506
-0.1356898 -0.07716856 -0.006287694 -0.030661508 -0.050411895 -0.14113553 -0.07602967 -0.020253718
-0.048010908 -1.0030491 -0.40620583 -0.06340761 -0.4080823 0.015397769 0.22049469 -0.216085
0.0752371 0.3090952 0.30355528 0.19425419 -0.08418031 0.13959172 0.22731408 -0.38887125
-0.2972569 -0.4857931 -0.82009065 0.03816516 0.18704797 0.22818956 -0.30873016 -0.07210048
0.2600058 -0.36491245 -0.21476325 0.32464936 0.32957998 0.2570489 0.3049158 -0.04313637
0.053828754 -0.028932497 -0.07130184 -0.09698281 -0.19759725 0.25013512 -0.053849474 0.02126157
0.12948373 -0.29637262 0.15790564 -0.10276995 0.079117246 0.0037871457 -0.3095064 -0.044745266
0.10368577 0.21788359 -0.11662602 -0.089751706 0.51315826 0.07107099 -0.0011166038 0.44357002
0.15683213 0.22010583 0.12227436 -0.1611474 -0.07663216 0.031644877 -0.23234034 -0.40465194
0.3453938 0.13590123 -0.13107903 0.48859444 -0.0003592531 -0.36547527 0.28130692 -0.21337663
-0.83111537 -0.45066708 -0.06332182 0.29695737 0.117014244 0.31025767 0.028564923 0.35295677
0.00418612 -0.40578476 0.056997087 0.27835345 0.2172084 0.23261277 -0.035430424 -0.19477348
0.2646836 -0.28391853 -0.41945875 -0.37972596 -0.0029473577 0.091271475 -0.24806878 -0.01152023
0.22127211 -0.09542832 0.1411357 0.28950801 -0.25972736 0.12288973 0.4414728 -0.12688042
0.11124636 0.16180907 0.07893243 -0.13275634 -0.27416077 0.11412901 0.04998765 0.28122663
-0.24403137 -0.07087117 0.21703395 -0.44297606 -0.121267594 0.27931193 0.098465346 0.06304206
-0.21149655 0.15550718 -0.07261137 -0.45400915 0.3713965 0.23221852 0.0033011562 0.25329784
0.29614457 0.12593897 -0.25657988 0.1276709 0.31368303 -0.3472791 -0.3743674 0.060777936
-0.7217889 -0.040008407 0.10741358 -0.25237665 0.13211402 0.09739489 -0.5639463 -0.26123187
0.20444947 -0.6367608 -0.1444563 0.106006935 -0.012754422 0.19580694 -0.08502924 0.40379018
0.21723704 0.06625876 -0.31240305 -0.3717894 -0.39567563 0.14060272 0.014053021 -0.22338814
0.3187378 0.12943769 0.24505532 -0.030023 0.06801302 0.3545945 -0.21213064 -0.25791883
0.22550772 -1.974505e-05 -0.06335638 0.11653847 -0.1139214 0.28537184 -0.20319529 -0.114254504
00000000: 29ff a03e af92 10be f070 cdbe cccd ad3e
00000010: 7bf9 6fbd 9bc3 b7be 2fa5 983e a1f1 823e
00000020: b497 e03d 80b2 cc3e c2a0 54bc 6383 b5bd
00000030: c826 00be 733c a4be fbe0 d83d a882 823d
00000040: d463 a3bd 319c 9e3e 7032 d33e 25d1 623d
00000050: b45e f8bd 59ef 4e3e ec1c 8cbd d0a3 c8bb
00000060: f508 5a3d 9ea3 1cbd bfc8 f8bd 2672 933e
00000070: d664 743e dc9a b13e ee55 adbd 51d7 903d
00000080: 4c14 683d 3151 a6be 0035 a7be d301 55be
00000090: de66 e43e 5fe8 973d 8259 aa3d 765a e9bd
000000a0: 2ed9 7cbe 23f8 07bc 63df 00be f87b f13c
000000b0: b183 c93d a192 033d 2a93 603e a8fd 7e3e
000000c0: 6f02 debd f883 923e 0b81 123e bb31 53bf
000000d0: 1bd2 bdbe 1067 05bf 1bcc 7f3d a7cd f43c
000000e0: f476 86be efee 8fbd e6cd 04be c682 33bd
000000f0: b1c8 143e 3008 223e 3d0c fe3e bd7e ba3e
00000100: e3a0 ae3e 41c5 573e f7f7 06b8 2d4f 783d
00000110: 4182 17be 212f 03bf 4260 adbe 7300 27bf
00000120: 44f2 0abe 8d0a 9ebd 0009 cebb d82d fbbc
00000130: b47c 4ebd d585 10be 72b5 9bbd 20eb a5bc
00000140: 16a7 44bd ea63 80bf 36fa cfbe d9db 81bd
00000150: 2af0 d0be ed46 7c3c 5cc9 613e 6345 5dbe
00000160: e915 9a3d ba41 9e3e 996b 9b3e 92ea 463e
00000170: ba66 acbd 22f1 0e3e 06c5 683e 221a c7be
00000180: 0e32 98be e0b9 f8be 76f1 51bf 1253 1c3d
00000190: 8189 3f3e 86aa 693e e111 9ebe 6ba9 93bd
000001a0: 7b1f 853e ced5 babe e6ea 5bbe 7138 a63e
000001b0: b5be a83e ea9b 833e ec1d 9c3e c3af 30bd
000001c0: 8a7b 5c3d d803 edbc b306 92bd ec9e c6bd
000001d0: ef56 4abe b611 803e 4491 5cbd be2c ae3c
000001e0: 6297 043e 27be 97be 04b2 213e 0d79 d2bd
000001f0: 3908 a23d c331 783b 9f77 9ebe d046 37bd
00000200: 3459 d43d e01c 5f3e 9fd9 eebd becf b7bd
00000210: 575e 033f ab8d 913d 025b 92ba 9c1b e33e
00000220: 9a98 203e 6c63 613e fb6a fa3d d303 25be
00000230: 52f1 9cbd 0f9e 013d a0ea 6dbe 8a2e cfbe
00000240: 75d7 b03e b129 0b3e 9539 06be 0d29 fa3e
00000250: 235a bcb9 931f bbbe 7607 903e 677f 5abe
00000260: fac3 54bf d6bd e6be dfae 81bd cc0a 983e
00000270: 2aa5 ef3d 18da 9e3e fc00 ea3c c0b6 b43e
00000280: b82b 893b 05c3 cfbe c775 693d 5884 8e3e
00000290: e16b 5e3e 0b32 6e3e 7e1f 11bd b372 47be
000002a0: 9c84 873e c55d 91be 4cc3 d6be 716b c2be
000002b0: 7528 41bb 8aec ba3d be05 7ebe 59bf 3cbc
000002c0: 2895 623e ec6f c3bd e085 103e 653a 943e
000002d0: fcfa 84be 9cad fb3d b908 e23e f1ec 01be
000002e0: 22d5 e33d 47b1 253e 53a7 a13d 47f1 07be
000002f0: cd5e 8cbe 78bc e93d dabf 4c3d f0fc 8f3e
00000300: 5ce3 79be e724 91bd 263e 5e3e c2cd e2be
00000310: 255b f8bd f901 8f3e 33a8 c93d 321c 813d
00000320: 8d92 58be 463d 1f3e 45b5 94bd e373 e8be
00000330: af27 be3e b1ca 6d3e 3658 583b 41b0 813e
00000340: 43a0 973e 25f6 003e 705e 83be 29bc 023e
00000350: 109b a03e 91ce b1be 15ad bfbe 49f2 783d
00000360: 28c7 38bf dbdf 23bd a7fb db3d 8337 81be
00000370: e648 073e f976 c73d c95e 10bf 2fc0 85be
00000380: 345b 513e c102 23bf 5aec 13be 2a1a d93d
00000390: ecf7 50bc 9d81 483e cf23 aebd 96bd ce3e
000003a0: 6373 5e3e acb2 873d 4bf3 9fbe 2e5b bebe
000003b0: ff95 cabe 29fa 0f3e a43e 663c dcbf 64be
000003c0: 9a31 a33e 508b 043e c8ef 7a3e cbf2 f5bc
000003d0: 694a 8b3d 698d b53e c638 59be f00d 84be
000003e0: 7feb 663e 2ca2 a5b7 fdc0 81bd b9ab ee3d
000003f0: 9f4f e9bd 421c 923e 6d12 50be 44fe e9bd

sequential_1/conv2d_3/Conv2D i1 [64, 3, 3, 32]
-78 -87 -98 -85 -122 3 -13 -27
-8 12 -30 -44 -104 -97 -39 -69
-23 -3 -87 -9 -26 -59 -65 -106
-5 -18 -6 -35 -40 -12 -71 -90
-1 -19 -35 -30 -53 -4 -19 2
-14 -19 -10 -40 -72 -34 -24 -32
15 -34 -39 -17 -81 -30 -39 -45
-2 -31 2 -59 21 -8 -73 8
16 -12 -28 -95 -40 -23 16 -9
-14 10 2 -27 -86 -39 -17 -44
-3 -64 -57 -3 -71 -9 -22 -58
-13 -23 24 -38 -23 24 -65 -1
-28 -16 -43 14 -19 4 -6 6
9 -18 5 1 -37 -24 -71 1
8 -38 -50 12 -5 -12 -72 -8
-10 -35 -6 -21 14 -4 -26 -37
-17 -2 -11 28 -30 10 -2 25
0 -7 25 -10 -42 -15 -17 3
28 -55 -56 -6 -39 -4 -41 -56
4 -11 -22 -31 0 -9 -36 -20
-16 16 -10 -2 -17 7 6 -21
-11 5 3 4 -16 -25 -19 -19
-25 -11 -30 -14 -31 3 -49 -41
-1 -20 -12 3 -50 42 -34 -29
-18 1 -43 -16 -1 -39 9 -26
3 19 -28 12 -49 -23 -33 -53
-9 -23 -31 30 -56 21 -40 -69
-3 -11 1 11 38 -5 -15 -28
-5 21 -22 -75 -8 -20 23 -14
12 19 -22 -14 -37 -25 17 -27
-18 19 -32 24 -39 -8 -36 -119
1 12 -3 -8 6 28 -7 -50
00000000: b2a9 9eab 8603 f3e5 f80c e2d4 989f d9bb
00000010: e9fd a9f7 e6c5 bf96 fbee fadd d8f4 b9a6
00000020: ffed dde2 cbfc ed02 f2ed f6d8 b8de e8e0
00000030: 0fde d9ef afe2 d9d3 fee1 02c5 15f8 b708
00000040: 10f4 e4a1 d8e9 10f7 f20a 02e5 aad9 efd4
00000050: fdc0 c7fd b9f7 eac6 f3e9 18da e918 bfff
00000060: e4f0 d50e ed04 fa06 09ee 0501 dbe8 b901
00000070: 08da ce0c fbf4 b8f8 f6dd faeb 0efc e6db
00000080: effe f51c e20a fe19 00f9 19f6 d6f1 ef03
00000090: 1cc9 c8fa d9fc d7c8 04f5 eae1 00f7 dcec
000000a0: f010 f6fe ef07 06eb f505 0304 f0e7 eded
000000b0: e7f5 e2f2 e103 cfd7 ffec f403 ce2a dee3
000000c0: ee01 d5f0 ffd9 09e6 0313 e40c cfe9 dfcb
000000d0: f7e9 e11e c815 d8bb fdf5 010b 26fb f1e4
000000e0: fb15 eab5 f8ec 17f2 0c13 eaf2 dbe7 11e5
000000f0: ee13 e018 d9f8 dc89 010c fdf8 061c f9ce
